2024-12-08 18:24:52,979 - train - INFO - <dataset.dataset.SpatialCountDataset object at 0x328049250>
2024-12-08 18:24:52,985 - train - INFO - spaVAE(
  (svgp): SVGP(
    (kernel): ExpQuadKernel()
  )
  (encoder): ConvEncoder(
    (layers): ModuleList(
      (0): Conv1d(1, 2, kernel_size=(5,), stride=(1,))
      (1): ELU(alpha=1.0)
      (2): MaxPool1d(kernel_size=2, stride=2, padding=0, dilation=1, ceil_mode=False)
      (3): Linear(in_features=1006, out_features=128, bias=True)
      (4): BatchNorm1d(128, eps=1e-05, momentum=0.1, affine=True, track_running_stats=True)
      (5): ELU(alpha=1.0)
      (6): Linear(in_features=128, out_features=64, bias=True)
      (7): BatchNorm1d(64, eps=1e-05, momentum=0.1, affine=True, track_running_stats=True)
      (8): ELU(alpha=1.0)
    )
    (enc_mu): Linear(in_features=64, out_features=10, bias=True)
    (enc_var): Linear(in_features=64, out_features=10, bias=True)
  )
  (decoder): DenseDecoder(
    (layers): ModuleList(
      (0): Linear(in_features=10, out_features=128, bias=True)
      (1): BatchNorm1d(128, eps=1e-05, momentum=0.1, affine=True, track_running_stats=True)
      (2): ELU(alpha=1.0)
    )
    (dec_mu): Sequential(
      (0): Linear(in_features=128, out_features=1011, bias=True)
      (1): MeanAct()
    )
  )
)
Trainable parameters: 271943
2024-12-08 18:25:05,930 - trainer.trainer - INFO -     epoch          : 1
2024-12-08 18:25:05,930 - trainer.trainer - INFO -     lr             : 0.1
2024-12-08 18:25:05,930 - trainer.trainer - INFO -     beta           : 14.127444998868066
2024-12-08 18:25:05,930 - trainer.trainer - INFO -     loss           : 1740.5807610977101
…
