2024-12-11 18:23:42,295 - test - INFO - spaVAE(
  (svgp): SVGP(
    (kernel): ExpQuadKernel()
  )
  (encoder): ConvEncoder(
    (layers): ModuleList(
      (0): Conv1d(1, 2, kernel_size=(5,), stride=(1,))
      (1): ELU(alpha=1.0)
      (2): MaxPool1d(kernel_size=2, stride=2, padding=0, dilation=1, ceil_mode=False)
      (3): Linear(in_features=1006, out_features=128, bias=True)
      (4): BatchNorm1d(128, eps=1e-05, momentum=0.1, affine=True, track_running_stats=True)
      (5): ELU(alpha=1.0)
      (6): Linear(in_features=128, out_features=64, bias=True)
      (7): BatchNorm1d(64, eps=1e-05, momentum=0.1, affine=True, track_running_stats=True)
      (8): ELU(alpha=1.0)
    )
    (enc_mu): Linear(in_features=64, out_features=10, bias=True)
    (enc_var): Linear(in_features=64, out_features=10, bias=True)
  )
  (decoder): DenseDecoder(
    (layers): ModuleList(
      (0): Linear(in_features=10, out_features=128, bias=True)
      (1): BatchNorm1d(128, eps=1e-05, momentum=0.1, affine=True, track_running_stats=True)
      (2): ELU(alpha=1.0)
    )
    (dec_mu): Sequential(
      (0): Linear(in_features=128, out_features=1011, bias=True)
      (1): MeanAct()
    )
  )
)
Trainable parameters: 271943
2024-12-11 18:23:42,302 - test - INFO - batch_num - loss - NBMetric
2024-12-11 18:23:42,571 - test - INFO - 1 - 1023.6459957113909 - 1022.8655481360192
2024-12-11 18:23:42,797 - test - INFO - 2 - 989.9587971044451 - 989.2461340932198
2024-12-11 18:23:43,022 - test - INFO - 3 - 984.0043888549582 - 983.2144845284175
…
